built model with input shape = (28, 28, 1, 1)
Model: "sequential"
_________________________________________________________________
 Layer (type)                Output Shape              Param #
=================================================================
 conv2d (Conv2D)             (None, 26, 26, 32)        320
 max_pooling2d (MaxPooling2D  (None, 13, 13, 32)       0
 )
 flatten (Flatten)           (None, 5408)              0
 dense (Dense)               (None, 100)               540900
 dense_1 (Dense)             (None, 10)                1010
 softmax (Softmax)           (None, 10)                0
=================================================================
Total params: 542,230
Trainable params: 542,230
Non-trainable params: 0
_________________________________________________________________
There are  188  batches in the warm start
Started Training
Traceback (most recent call last):
  File "Main.py", line 83, in <module>
    sf.k_diversity(model,train_ds,config['k'],config['batch_size'],config['alpha'],config['beta'],conn)
…
