built model with input shape = (28, 28, 1, 1)
Model: "sequential"
_________________________________________________________________
 Layer (type)                Output Shape              Param #
=================================================================
 conv2d (Conv2D)             (None, 26, 26, 32)        320
 max_pooling2d (MaxPooling2D  (None, 13, 13, 32)       0
 )
 flatten (Flatten)           (None, 5408)              0
 dense (Dense)               (None, 100)               540900
 dense_1 (Dense)             (None, 10)                1010
=================================================================
Total params: 542,230
Trainable params: 542,230
Non-trainable params: 0
_________________________________________________________________
There are  188  batches in the warm start
Started Training
WARNING:tensorflow:Model was constructed with shape (None, 28, 28, 1) for input KerasTensor(type_spec=TensorSpec(shape=(None, 28, 28, 1), dtype=tf.float32, name='conv2d_input'), name='conv2d_input', description="created by layer 'conv2d_input'"), but it was called on an input with incompatible shape (None, 28, 1, 1).
…
