built model with input shape = (28, 28, 1, 1)
Model: "sequential"
_________________________________________________________________
 Layer (type)                Output Shape              Param #
=================================================================
 conv2d (Conv2D)             (None, 26, 26, 32)        320
 max_pooling2d (MaxPooling2D  (None, 13, 13, 32)       0
 )
 flatten (Flatten)           (None, 5408)              0
 dense (Dense)               (None, 100)               540900
 dense_1 (Dense)             (None, 10)                1010
 softmax (Softmax)           (None, 10)                0
=================================================================
Total params: 542,230
Trainable params: 542,230
Non-trainable params: 0
_________________________________________________________________
There are  188  batches in the warm start
Started Training
(1, 28, 28, 1)
tf.Tensor([4], shape=(1,), dtype=int64)
1/1 [==============================] - 0s 81ms/step
[[ 0.01029847  0.01762757 -0.0023393  -0.00267935 -0.01614446 -0.02166471
…
